enigmasoundbackend/emotion_model/emotion_model.pth (torch, 519552 bytes, 4 tensors)

conv1.weight f4 [32, 1, 3, 3]
0	0x3f1f52da	0.62235796
1	0xbe213166	-0.157415
2	0x3ea9ae1d	0.3314065
3	0xbea1aa88	-0.31575418
4	0xbf28518b	-0.65749425
5	0xbed9a9eb	-0.4251245
6	0xbdea3b4e	-0.11437093
7	0xbeaa11da	-0.33216745
8	0x3ea15db4	0.31516802
9	0x3e11947a	0.14216796
10	0x3e8bd46a	0.27310497
11	0x3e868862	0.26275927
12	0xbe487b56	-0.19578299
13	0xbe06d945	-0.13168819
14	0xbeef20b1	-0.4670463
15	0xbddd6319	-0.10809917
16	0xbe18db80	-0.14927483
17	0x3e64bb56	0.22337088
18	0xbc973ddf	-0.01846212
19	0x3dc61861	0.09672619
20	0xbe09dfc9	-0.13464274
21	0xbec6f16a	-0.3885606
22	0x3e8642e8	0.2622292
23	0x3e72dbf6	0.23716721
24	0x3ed19ca0	0.40939808
25	0xbf0102d0	-0.50394917
26	0x3d7f33aa	0.06230513
27	0xbe30b8b1	-0.17257954
28	0x3ec696f3	0.3878704
29	0x3eb59215	0.35463014
30	0x3eb81d0f	0.3595967
31	0x3d7aa406	0.06119158
32	0x3d7ac5de	0.061223857
33	0xbee2faa4	-0.4433185
34	0xbe8a4a7e	-0.27009958
35	0x3cbc7669	0.023005681
36	0x3d30b368	0.043139845
37	0x3ded1454	0.11576143
38	0x3d7dca6b	0.06196062
39	0xbb6ed8d6	-0.0036445162
40	0xbd87e57c	-0.066355675
41	0xbec46eaa	-0.3836568
42	0xbea1d627	-0.31608698
43	0xbe75e312	-0.24012402
44	0x3ec38f6f	0.3819537
45	0xbd41957e	-0.047261707
46	0x3d394993	0.04523618
47	0x3de453e0	0.111488104
48	0xbde60f3e	-0.11233376
49	0x3e294c14	0.16532928
50	0x3df1155c	0.11771652
51	0x3e69e754	0.22842151
52	0x3d6f7dda	0.05846963
53	0xbead4d32	-0.33847958
54	0x3e76c2d8	0.24097764
55	0x3deeada2	0.116542116
56	0xbebff3b5	-0.3749062
57	0x3ecfc7ef	0.40582225
58	0xbee0f469	-0.4393647
59	0x3e94fcf4	0.29099238
60	0x3ddcaa26	0.10774641
61	0xbf0f9853	-0.56091803
62	0x3e7b4ceb	0.2454106
63	0x3e00b956	0.125707
64	0x3e7a6335	0.24451907
65	0xbed0c682	-0.4077645
66	0xbe7fb169	-0.2497002
67	0x3ef94cb1	0.48691323
68	0x3e134f51	0.14385726
69	0xbefeafe7	-0.49743578
70	0x3e88018c	0.2656368
71	0xbdc6880a	-0.09693916
72	0x3d85c67e	0.06532
73	0xbebe038d	-0.37112084
74	0xbc664553	-0.014054614
75	0x3e9c8dac	0.30576837
76	0x3d71259a	0.05887375
77	0x3e2c55ba	0.16829577
78	0x3d4eb704	0.050467506
79	0xbeda67c7	-0.426573
80	0x3d0e1974	0.034692243
81	0x3dfd3d62	0.123652235
82	0xbe7e6123	-0.24841742
83	0xbe3df494	-0.1855033
84	0x3ea577c8	0.32317948
85	0xbe5900a8	-0.21191657
86	0x3d9f407b	0.077759705
87	0x3ecb93a6	0.39761084
88	0x3de0420d	0.10950098
89	0xbcd54b17	-0.026036782
90	0x3e9902dd	0.29884997
91	0xbeabb93b	-0.33539757
92	0x3cf3d4fe	0.029764649
93	0x3e9d90f6	0.3077466
94	0xbd57cece	-0.05268746
95	0xbead4173	-0.33838996
96	0x3ec304be	0.38089556
97	0xbd0b93ec	-0.034076616
98	0xbe955ff9	-0.29174784
99	0x3e6f0db9	0.23345079
100	0x3e0200fa	0.12695685
101	0x3eb27951	0.34858182
102	0xbf046fec	-0.5173328
103	0xbf0224e1	-0.5083752
104	0xbe9d7519	-0.307534
105	0xbea9214c	-0.33033216
106	0x3d8b5734	0.06803742
107	0xbe866968	-0.26252294
108	0xbf499813	-0.7874767
109	0x3de1f783	0.11033537
110	0xbf0ea032	-0.5571319
111	0xbf521733	-0.8206665
112	0xbe882f30	-0.265985
113	0x3efbdecb	0.49193415
114	0xbf1372d0	-0.57597065
115	0xbf20a2f1	-0.6274863
116	0x3ea8606a	0.32886058
117	0xbe45ac62	-0.1930404
118	0x3ec4bbe9	0.38424614
119	0x3e937964	0.2880355
120	0x3cc04651	0.02347103
121	0xbef85241	-0.48500255
122	0xbf09c5db	-0.5381753
123	0x3e16f323	0.14741187
124	0x3e027886	0.12741289
125	0x3e728a1b	0.23685496
126	0xbe898d44	-0.2686559
127	0xbe510bed	-0.20414706
128	0xbdf83b90	-0.12120736
129	0xbe79ec1d	-0.24406476
130	0x3e62bcc0	0.22142315
131	0xbe0146e0	-0.12624693
132	0x3eb438aa	0.3519948
133	0x3e99acae	0.30014557
134	0x3e196f1b	0.1498379
135	0x3eb8b956	0.360789
136	0xbeb482c0	-0.35256004
137	0x3e24c489	0.16090597
138	0xbd86bb61	-0.065787084
139	0xbee047e4	-0.43804848
140	0x3eaf8551	0.342814
141	0x3d32e30c	0.04367356
142	0xbe01285a	-0.12613049
143	0x3e6c4492	0.23073032
144	0xbe89d49b	-0.26920018
145	0xbeaf1368	-0.34194493
146	0x3d7fb421	0.062427644
147	0x3e7e0322	0.24805883
148	0xbe9bb027	-0.3040783
149	0xbec2b1ec	-0.3802637
150	0x3eee1295	0.46498552
151	0x3ef083a2	0.46975428
152	0x3d30cead	0.04316585
153	0xbebce266	-0.36891478
154	0xbd7891c1	-0.060685877
155	0x3f3110ae	0.69166076
156	0xbe6eac87	-0.23308001
157	0xbef1475f	-0.47124764
158	0x3dd8af5f	0.105803244
159	0x3f248947	0.6427197
160	0xbd77f7ad	-0.060538936
161	0xbe188351	-0.14893843
162	0xbea216e2	-0.31658083
163	0x3ddc65d4	0.1076161
164	0x3dc9b7a2	0.09849478
165	0xbdfc0432	-0.12305488
166	0x3e85715d	0.26063052
167	0x3dc0ae94	0.09408298
168	0x3e43f154	0.19135028
169	0x3dcd0899	0.100114055
170	0x3e708270	0.23487258
171	0xbd9ea877	-0.07746976
172	0x3c6c1d60	0.0144113
173	0xbf00fa87	-0.50382274
174	0x3f03fc22	0.515566
175	0xbcdad393	-0.026712215
176	0x3e710f85	0.23541076
177	0xbf1564ba	-0.5835682
178	0x3e5cc9d2	0.21561363
179	0x3e7ef017	0.24896275
180	0xbe812bfe	-0.25228876
181	0x3debf98d	0.115222074
182	0xbe804275	-0.25050703
183	0xbcb78021	-0.022399964
184	0xbebdce3d	-0.3707141
185	0xbba05fcf	-0.004894234
186	0x3df9f1bb	0.122043096
187	0x3eb22246	0.34791774
188	0x3e622c0a	0.22087112
189	0x3bf35428	0.0074258037
190	0xbd81215d	-0.06305192
191	0x3f5b12cd	0.8557556
192	0xbed5f9e1	-0.41792205
193	0xbe655afc	-0.22397989
194	0x3e4b304f	0.19842647
195	0xbe3550d8	-0.1770662
196	0xbef8781e	-0.48529142
197	0xbe8d5d6a	-0.27610332
198	0x3ec48142	0.38379866
199	0xbd8a2470	-0.06745231
200	0xbeb48e01	-0.3526459
201	0x3d940eb0	0.07229364
202	0x3d3607a8	0.044440895
203	0x3db8fd62	0.09032704
204	0xbe90b41d	-0.28262416
205	0x3dc1fd96	0.09472196
206	0x3e8b8eaf	0.27257296
207	0xbe55c52a	-0.20875993
208	0xbda20f30	-0.07913053
209	0x3dfa20ab	0.12213262
210	0xbe0c50f9	-0.13702764
211	0x3cb389e6	0.021916341
212	0x3e91d881	0.28485492
213	0xbeb27e66	-0.3486206
214	0xbe96acc6	-0.2942869
215	0x3eedef49	0.46471623
216	0xbd0978d1	-0.033562485
217	0xbeb22420	-0.34793186
218	0x3e894564	0.26810753
219	0xbeb047f8	-0.34429908
220	0x3c88999c	0.01667481
221	0x3e48e72e	0.19619438
222	0xbe965d55	-0.29368082
223	0x3eb1803e	0.34668154
224	0x3e007cde	0.12547633
225	0xbe0a5d66	-0.13512191
226	0xbb9bfb9d	-0.0047602192
227	0xbe81285c	-0.25226104
228	0xbdaa9394	-0.083289295
229	0x3edc63cc	0.4304489
230	0x3e94e3d7	0.29080078
231	0xbd8a2e0f	-0.06747066
232	0xbe501751	-0.20321395
233	0xbe814b1a	-0.2525261
234	0x3eaa89b8	0.33308196
235	0x3e4fefc3	0.20306306
236	0xbe463c6b	-0.19358985
237	0x3e4facf8	0.20280826
238	0xbda04a9a	-0.07826729
239	0x3ccda97f	0.025105236
240	0xbf02a14f	-0.5102739
241	0xbdacaa0a	-0.0843087
242	0xbde36663	-0.11103513
243	0xbe316032	-0.17321852
244	0xbe87b961	-0.2650862
245	0xbd2b9727	-0.041892197
246	0x3e901d7a	0.2814749
247	0x3e192aea	0.14957777
248	0xbe9de601	-0.30839542
249	0xbe973803	-0.2953492
250	0x3e905c15	0.28195253
251	0x3e0ce395	0.1375869
252	0x3e4000a1	0.1875024
253	0x3e93e4a7	0.28885385
254	0x3dff4839	0.12464947
255	0xbeea47a9	-0.45757797

conv1.bias f4 [32]
0	0x3e13e817	0.14444004
1	0x3d9b1d4d	0.07573948
2	0x39b78ad0	0.00035007903
3	0xbe936b60	-0.28792858
4	0x3df07829	0.11741669
5	0xbe1a53a9	-0.15070976
6	0xbe0da407	-0.13832103
7	0xbc6dfcb2	-0.014525579
8	0x3c799ea8	0.0152355805
9	0xbe8613e9	-0.26187065
10	0xbc9038a9	-0.017605143
11	0x3e4d8f53	0.20074205
12	0x3e952159	0.29127005
13	0x3b4bd461	0.003110193
14	0xbdf11160	-0.11770892
15	0xbdde134e	-0.10843526
16	0xb97da7ba	-0.00024190443
17	0xbe10e3c3	-0.14149384
18	0xbee4441c	-0.44583213
19	0xbe104af9	-0.140911
20	0x3d763431	0.060108367
21	0x3c112372	0.0088585485
22	0xbe46d961	-0.19418861
23	0x3d272dce	0.040815167
24	0x3d27c260	0.040956855
25	0xbe742c36	-0.2384499
26	0x3ca14b3a	0.019689191
27	0x3dfffc1f	0.1249926
28	0xbd1f42b8	-0.038881987
29	0xbba3b90a	-0.0049964236
30	0xbd111a81	-0.035425667
31	0x3bdbc404	0.0067067165

fc1.weight f4 [7, 18432]
0	0xbc9feab2	-0.019521091
1	0xbba91aa4	-0.0051606465
2	0xbd939e61	-0.07207943
3	0x3ceab97f	0.028652905
4	0x3d9d10db	0.076692306
5	0x3ba1e9d5	0.004941205
6	0x3cd3df26	0.025863241
7	0x3d9e3699	0.077252574
8	0x3d755b44	0.05990149
9	0x3d320ae5	0.04346742
10	0x3c16ccc2	0.0092040915
11	0x3d9846e9	0.074354
12	0xbcdc4408	-0.026887909
13	0xbcdda780	-0.02705741
14	0xbce3ef87	-0.027824176
15	0xbd02bacd	-0.03191643
16	0x3da45d0e	0.08025561
17	0x3d040a56	0.03223642
18	0xbd04b185	-0.03239586
19	0xbc8023f2	-0.01564214
20	0xbce60e8b	-0.028083107
21	0x3d9ba32c	0.07599482
22	0xbae3fbc2	-0.0017393755
23	0xbd2d5248	-0.042314798
24	0x3c847784	0.01617027
25	0x3cf4f4c4	0.02990187
26	0xbd31a7f4	-0.043373063
27	0x3d4efa02	0.050531395
28	0x3c9c58be	0.019085284
29	0x3d03d051	0.032181088
30	0xbb584747	-0.003300147
31	0x3dd9802e	0.106201515
32	0x3cf34d97	0.029700084
33	0x3ba54abb	0.005044309
34	0xbc056fe9	-0.008144357
35	0xbd817d0b	-0.06322678
36	0x3b85cafa	0.0040830346
37	0xba0f8fe8	-0.0005476461
38	0x3ca3e208	0.020005241
39	0xbdb2d6f2	-0.08732404
40	0x3bf4833d	0.007461934
41	0x3dba6f6b	0.091032825
42	0x3df677ca	0.12034567
43	0x3dad1030	0.08450353
44	0xbcc29d16	-0.023756545
45	0xbd2027d4	-0.039100483
46	0x3d0831db	0.03325067
47	0xbca252e3	-0.019814914
48	0x3d8a2870	0.06745994
49	0xbabf8b48	-0.0014613653
50	0x3d216239	0.039400313
51	0x3e046406	0.12928781
52	0xbbabcfb9	-0.0052432683
53	0x3c42ac63	0.0118819205
54	0xbd144ff9	-0.03620908
55	0x3d7fa39b	0.062411886
56	0x3cfd2305	0.030900488
57	0x3d2ebde8	0.042661577
58	0x3db87f6c	0.09008679
59	0x3cb22c50	0.021749645
60	0x3d983259	0.07431478
61	0xbd396471	-0.045261804
62	0xbc3e8139	-0.011627489
63	0x3df8739d	0.121314265
64	0x3de661b6	0.11249106
65	0x3c7537b0	0.01496689
66	0xbccd4c02	-0.025060657
67	0x3d841de7	0.06451016
68	0xbb97d3a3	-0.0046333834
69	0xbd3cb751	-0.04607326
70	0xbca9db9f	-0.020734606
71	0x3d061d99	0.03274307
72	0xbd8c0bd3	-0.06838193
73	0xbc73d9b7	-0.01488345
74	0x3d8c643d	0.068550564
75	0x3d491d2a	0.04910008
76	0x3d4426a5	0.047888417
77	0x3d228a65	0.039682765
78	0x3d4e4729	0.050360832
79	0x3e0c558d	0.1370451
80	0x3d9f68a6	0.07783632
81	0x3ce4722b	0.02788647
82	0xbd8f5dfc	-0.07000348
83	0x3d9fd0e4	0.078035146
84	0x3dbba681	0.091626175
85	0x3ce07564	0.027399726
86	0xbe016765	-0.12637098
87	0x3db8150c	0.089883894
88	0x3d18a10f	0.037262972
89	0x3c29645f	0.010338872
90	0x3d2b6bfa	0.04185102
91	0xbb1ab520	-0.0023606494
92	0xbd95bea1	-0.0731175
93	0xbd48f889	-0.049065147
94	0xbce5dbcb	-0.028058907
95	0xbb850cf3	-0.0040603816
96	0xbd1d2950	-0.038369477
97	0xbce6dd85	-0.0281818
98	0x3dab3fe9	0.08361799
99	0x3dbc5d67	0.091975026
100	0xbbe1ec69	-0.0068946374
101	0x3d1e0321	0.038577203
102	0x3c3aacc3	0.011393729
103	0x3cd91ac5	0.026502023
104	0xbd125ddd	-0.035734046
105	0x3a88b70f	0.0010430532
106	0xbb88a47a	-0.0041699978
107	0x3dbbc219	0.091678806
108	0xbe12e725	-0.14345987
109	0xbbebbbea	-0.007194032
110	0x3c5eb0ab	0.013591926
111	0x3e0c7a95	0.13718636
112	0xbcbf86ef	-0.023379771
113	0xbd91fe18	-0.07128543
114	0xbe04e22e	-0.12976906
115	0x3ceb88f1	0.028751822
116	0x3d3f93bd	0.046771754
117	0x3c8a32cd	0.016869927
118	0xbbf57e2d	-0.007491848
119	0x3d90fbd4	0.070792824
120	0xbd9400fa	-0.07226749
121	0xbdf5f447	-0.12009483
122	0xbce43b30	-0.027860254
123	0x3d8f6888	0.0700236
124	0xbd10397c	-0.03521107
125	0xbd1dab1e	-0.03849327
126	0x3d25776d	0.040397096
127	0xbd24825a	-0.040163375
128	0x3bfd4620	0.007729307
129	0xbd779103	-0.06044103
130	0x3e25ace5	0.16179235
131	0x3cf02264	0.029313274
132	0xbdbe60e6	-0.09295826
133	0x3d4c8fb3	0.04994173
134	0x3c0b308d	0.008495462
135	0x3d5307e2	0.05152119
136	0x3d82123d	0.06351135
137	0x3d4ff85d	0.050773967
138	0x3c849933	0.016186332
139	0x3d290724	0.041266575
140	0x3d14098c	0.036141917
141	0xbd5db2e8	-0.054125696
142	0xbdc21327	-0.09476309
143	0x3d31b1ec	0.04338257
144	0xbdaf5154	-0.08560434
145	0xbd258e6d	-0.04041903
146	0xbe022744	-0.12710291
147	0xbda9d373	-0.08292284
148	0xbe036002	-0.12829593
149	0xbe4e69d1	-0.20157553
150	0xbd854587	-0.06507402
151	0xbdb345c6	-0.087535426
152	0x3c182351	0.009285764
153	0xbd1d120c	-0.03834729
154	0x3e0c502d	0.1370246
155	0x3d33f6de	0.043936603
156	0x3d71662f	0.05893534
157	0x3d88cd88	0.06679827
158	0x3d5a54d7	0.053303566
159	0xba8243cb	-0.0009938417
160	0xbd8f4d41	-0.06997157
161	0x3ce71249	0.028206961
162	0x3de4e084	0.111756355
163	0xbc766183	-0.015037897
164	0x3bf36f9f	0.0074290778
165	0xbd2c7e79	-0.0421128
166	0xbd378ba8	-0.04481092
167	0x3bc2ee2d	0.005948803
168	0xbd1e98b0	-0.038719833
169	0xbb83df90	-0.0040244535
170	0xbddcaf96	-0.10775678
171	0xbc641175	-0.013920178
172	0xbd893f18	-0.06701487
173	0x3cbd449a	0.023104
174	0xbd2adc96	-0.041714273
175	0xbd89496e	-0.06703459
176	0x3d0b38ef	0.033989843
177	0xbd5433f1	-0.051807348
178	0xbcf2b3c6	-0.029626738
179	0xbdad5d50	-0.084650636
180	0x3d244113	0.040101122
181	0x3e28b807	0.16476451
182	0x3e02b59d	0.12764592
183	0x3da848ec	0.08217034
184	0x3d564b74	0.05231805
185	0xbbccbe92	-0.0062483037
186	0x3d40e07d	0.04708909
187	0x3c7457df	0.014913528
188	0xbc1ac8ce	-0.00944729
189	0xbd45b558	-0.048268646
190	0xbcbc14c9	-0.02295913
191	0xbbef106c	-0.007295659
192	0x3c3ac440	0.011399329
193	0xbda4a187	-0.080386214
194	0xbcfd4850	-0.03091827
195	0x3cf2ef2b	0.02965506
196	0x3ce4e163	0.027939504
197	0x3d0d8e89	0.03455976
198	0xbbd95e22	-0.006633536
199	0xbbbac439	-0.005699661
200	0x3ca92e89	0.020652073
201	0x3e272041	0.16320898
202	0x3da33f65	0.07971076
203	0xbda483b6	-0.08032934
204	0xbe0b2dda	-0.1359171
205	0x3e2aa5b8	0.16664779
206	0x3e44351c	0.19160885
207	0x3d847e79	0.06469435
208	0x3dfc5d20	0.1232245
209	0x3d20c168	0.039246947
210	0x3d922651	0.071362145
211	0xbc4b7d79	-0.012420052
212	0xbdaea7a1	-0.085280664
213	0xbdbbea5c	-0.0917556
214	0xbd84475e	-0.06458925
215	0xbe0e0ad7	-0.13871323
216	0x3d76d078	0.060257405
217	0xbd9aefa1	-0.07565237
218	0xbd43c91a	-0.047799207
219	0xbd34e28e	-0.044161372
220	0xbdde4627	-0.10853224
221	0xbde42f42	-0.11141826
222	0x3d0c2c95	0.034222204
223	0xbd385e5c	-0.045011863
224	0xbd5cab19	-0.05387411
225	0x3e1da9e6	0.15396842
226	0x3df9fc03	0.122062705
227	0xbd53af78	-0.051681012
228	0xbd655e91	-0.05599839
229	0x3db030df	0.086030714
230	0x3d9e8efe	0.07742117
231	0x3d666ef0	0.056258142
232	0x3de32954	0.11091867
233	0xbb899eca	-0.0041998373
234	0xbc11855f	-0.008881896
235	0xbd2eb231	-0.042650405
236	0xbd6a0936	-0.05713769
237	0xbd9684a5	-0.07349519
238	0xbdd31fcb	-0.103087984
239	0xbde89237	-0.11356013
240	0x3d9830f5	0.07431213
241	0x3d722ffd	0.059127796
242	0x3d3bf740	0.045890093
243	0xbd2b6463	-0.041843783
244	0xbded7ab5	-0.1159567
245	0xbca5dbe9	-0.020246463
246	0xbc9f4e88	-0.019446626
247	0x3d0e4260	0.03473127
248	0xbe8679eb	-0.2626489
249	0xbbd72e3f	-0.0065667923
250	0x3d2784a2	0.040897973
251	0x3d1c3e5f	0.03814542
252	0xbd060ff9	-0.032730076
253	0x3e45d8ae	0.19320938
254	0x3d293de0	0.041318774
255	0x3cfaf54e	0.030634549

fc1.bias f4 [7]
0	0xba39aadb	-0.00070826494
1	0xbd434a67	-0.047678377
2	0xbbb0cea6	-0.005395728
3	0xbb6f0d9e	-0.0036476622
4	0x3ca45e23	0.02006442
5	0xbd167d27	-0.03674045
6	0x3cb4fc62	0.022093002
